backend/exoplanet-detection-pipeline/models/tabular_model.pth (torch, 221004 bytes, 19 tensors)

network.0.weight f4 [256, 39]
0	0xba951e02	-0.0011376741
1	0xbdc0c9e5	-0.09413508
2	0x3d5c8d23	0.053845536
3	0x3de9c20e	0.11413966
4	0xbe1f2f25	-0.15545328
5	0x3d5dbecf	0.054137047
6	0xbd08871d	-0.03333198
7	0x3e07de70	0.13268447
8	0x3be8cdc9	0.0071046096
9	0x3dc3497b	0.095355
10	0x3dcc4145	0.09973387
11	0x3e0441a2	0.12915662
12	0xbe0603b7	-0.13087355
13	0x3d8b0768	0.06788522
14	0x3c9ff3a9	0.019525366
15	0x3e18c15f	0.14917515
16	0xbdc1d17f	-0.09463786
17	0xbd00a511	-0.03140742
18	0xbd9fb31c	-0.07797834
19	0xbe152772	-0.14565828
20	0xbde39d69	-0.11114008
21	0xbd862a2d	-0.06551013
22	0xbca0f64f	-0.0196487
23	0x3d8a25a7	0.06745463
24	0xbe0e616a	-0.13904348
25	0x3d4a8fc9	0.04945353
26	0x3da22218	0.07916659
27	0xbd230b87	-0.039805915
28	0xbb07f008	-0.0020742435
29	0xbcb90704	-0.022586353
30	0xbcc0e332	-0.023545835
31	0xbde1a37e	-0.11017512
32	0x3e280d5a	0.16411343
33	0xbda6f3f8	-0.08152002
34	0x0082f6a6	1.2027095e-38
35	0xbba986a8	-0.005173523
36	0x8027ad5b	-3.643773e-39
37	0xbccf5abf	-0.025311826
38	0x3dd426bf	0.10358953
39	0xbd86b659	-0.06577749
40	0xbcd20035	-0.025634864
41	0xbcab3244	-0.020897992
42	0xbbd5fe31	-0.006530546
43	0xbe2a240a	-0.1661531
44	0x3e46f60d	0.19429798
45	0x3d838b00	0.064229965
46	0x3dadadd9	0.084804244
47	0x3cb811fb	0.022469511
48	0x3db5f662	0.088848844
49	0xbe62ef2b	-0.22161548
50	0x3dd06d90	0.101771474
51	0x3df7f30a	0.12106903
52	0xbca1d164	-0.019753166
53	0x3d54301c	0.051803693
54	0xbc2a366d	-0.010388953
55	0xbd1c2a21	-0.038126115
56	0x3c4ef7dc	0.0126323365
57	0xbd6289e6	-0.05530729
58	0xbdcdc5bc	-0.100474805
59	0x3d17f9f8	0.037103623
60	0xbddca10e	-0.10772906
61	0x3d92ae77	0.07162183
62	0xbda2d7f3	-0.07951345
63	0xbdc38092	-0.09546007
64	0x3db6601b	0.089050494
65	0xbd32aefc	-0.04362391
66	0x3dd9173d	0.106001355
67	0xbc8db9da	-0.017300535
68	0x3e0119f2	0.12607554
69	0x3d5ae4db	0.05344091
70	0x3d23a6d7	0.039954033
71	0x3db9533a	0.09049077
72	0x3981b148	0.00024736882
73	0x80105453	-1.499618e-39
74	0xbcf71455	-0.030161062
75	0x80bee70a	-1.7531625e-38
76	0xbe3ddf87	-0.185423
77	0xbdfe3645	-0.12412695
78	0xbe12ca6b	-0.14335029
79	0xbd62af2a	-0.05534283
80	0xbe08742e	-0.13325569
81	0xbdb713ee	-0.08939348
82	0x3d812c37	0.063072614
83	0xbdac0cf1	-0.08400906
84	0xbea4ad90	-0.32163668
85	0x3db38645	0.08765844
86	0x3dc1535a	0.09439726
87	0x3b808cb7	0.0039230245
88	0xbd84cb73	-0.06484117
89	0x3dd5dc1e	0.10442375
90	0xbd38ed5a	-0.04514823
91	0xbdd0b517	-0.1019079
92	0x3afbcfb1	0.0019211677
93	0x3da9e715	0.082960285
94	0x3c3a7282	0.01137984
95	0xbdd79cc0	-0.105279446
96	0x3cbbd54f	0.022928862
97	0xbd4dff01	-0.05029202
98	0xbd463cf1	-0.048397962
99	0xbd2f83b5	-0.042850215
100	0x3db756ce	0.089521036
101	0xbc4b10e0	-0.01239416
102	0x3d197ef4	0.037474588
103	0xbe04c32d	-0.12965079
104	0xbb0add9f	-0.0021189225
105	0xbe058af5	-0.13041289
106	0xbcf9f183	-0.03051067
107	0x3d143da6	0.036191605
108	0xbe328d80	-0.1743679
109	0x3d932073	0.071839236
110	0xbbf9d085	-0.0076237344
111	0xbd23a7f2	-0.039955087
112	0x805c2c00	-8.46465e-39
113	0x3dacf97e	0.08446024
114	0x000e7dd6	1.330838e-39
115	0xbc99eb6e	-0.01878902
116	0x3d82b7d7	0.06382721
117	0xbc079ed3	-0.008277613
118	0x3c637baa	0.013884464
119	0xbcc81051	-0.024421843
120	0xbd2b9f08	-0.04189971
121	0x3d996c09	0.07491309
122	0xbd938b7d	-0.0720434
123	0x3cd6f69f	0.026240645
124	0xbe03ef91	-0.12884356
125	0xbc2ff34f	-0.010739162
126	0x3e41390f	0.18869422
127	0x3de5b02b	0.11215242
128	0xbd41559f	-0.047200795
129	0xbd3d4f49	-0.04621819
130	0x3da71ee4	0.08160189
131	0x3c78fd01	0.01519704
132	0x3dbe2139	0.092836805
133	0x3e0cf105	0.13763817
134	0xbccc6d8b	-0.024954578
135	0x3dc6c40d	0.097053625
136	0x3d6b0811	0.05738074
137	0xbd891189	-0.06692798
138	0xbddb9c50	-0.107231736
139	0xbbfe647f	-0.007763445
140	0x3dd75918	0.1051504
141	0x3d819f5c	0.063292235
142	0x3ddcf3eb	0.10788711
143	0xbdd16caf	-0.10225808
144	0xbe07064a	-0.13185993
145	0xbafcfd05	-0.001930148
146	0xbe0e64c0	-0.1390562
147	0x3db451f2	0.08804692
148	0xbcc7bf79	-0.024383293
149	0xbab149ce	-0.0013526024
150	0xbbf67341	-0.0075210636
151	0x80622efb	-9.016732e-39
152	0x3d03aa97	0.03214511
153	0x8041f79c	-6.058133e-39
154	0xbd92972b	-0.07157739
155	0x3db9c692	0.090710774
156	0x3d4cbf54	0.049987152
157	0x3e1c3d6b	0.15257804
158	0xbd6a8c70	-0.057262838
159	0x3d3a151c	0.045430288
160	0xbdc5429c	-0.09631845
161	0x3d6aeb4c	0.057353303
162	0x3dc0ec69	0.09420092
163	0x3dc358e7	0.09538441
164	0x3cfe7339	0.031060802
165	0x3d46ac3a	0.04850409
166	0x3e04c3e2	0.12965348
167	0xbdedf7c7	-0.116195254
168	0xbbee60b3	-0.007274711
169	0x3d773368	0.06035176
170	0xbd0741bc	-0.033021674
171	0x3db73c32	0.08947028
172	0x3d9d4cd8	0.076806724
173	0x3e0862b9	0.1331891
174	0xbcec7fe1	-0.028869571
175	0x3de1a9c8	0.11018711
176	0x3b9cc701	0.0047844653
177	0x3dce55b2	0.10074939
178	0x3bc6847e	0.006058275
179	0x3a9be564	0.0011893925
180	0x3cb8cee8	0.022559598
181	0x3cafffea	0.021484334
182	0xbdfa9b09	-0.12236602
183	0x3d7df595	0.062001783
184	0x3e31954a	0.17342106
185	0x3cb089e7	0.021550132
186	0x3d03d3aa	0.03218428
187	0xbccfcaa9	-0.02536519
188	0xbe239122	-0.15973333
189	0xbdce1e28	-0.100643456
190	0x803cffed	-5.601939e-39
191	0xbd6c098f	-0.057626303
192	0x00712190	1.0389451e-38
193	0x3d6f413c	0.05841182
194	0x3e2a356a	0.16621938
195	0xbd2083b7	-0.039188113
196	0x3d718bc9	0.0589712
197	0x3dddbf56	0.1082751
198	0x3c9074fa	0.017633904
199	0x3d313a9e	0.043268792
200	0x3ded1bab	0.11577543
201	0x3e1d27a2	0.1534715
202	0xbd971a48	-0.073780596
203	0x3d38b3d7	0.045093384
204	0x3d88a57e	0.0667219
205	0xbde4a972	-0.11165132
206	0xbda18854	-0.07887331
207	0x3e0d24c7	0.1378356
208	0xbb03981f	-0.0020079685
209	0xbdfef037	-0.12448161
210	0xbcc89c73	-0.024488663
211	0x3a8ae70b	0.0010597421
212	0xbc860263	-0.01635856
213	0xbdd49691	-0.10380281
214	0xbd9f9791	-0.07792581
215	0xbde270c5	-0.11056665
216	0x3dfedd56	0.1244456
217	0x3c8fa950	0.01753679
218	0xbd2a00bd	-0.04150461
219	0x3df34f7b	0.11880394
220	0x3d54bf44	0.051940218
221	0x3bf98abd	0.007615416
222	0xbc79fab2	-0.015257524
223	0xbdbf95f6	-0.09354775
224	0xbd319320	-0.0433532
225	0x3e2c6675	0.1683596
226	0xbe2a0e03	-0.16606908
227	0xbd319812	-0.043357916
228	0x3d4e6114	0.05038555
229	0x008eafbc	1.3103682e-38
230	0x3d718427	0.05896392
231	0x0098ca21	1.4031506e-38
232	0x3e02519e	0.12726447
233	0xbd19cec2	-0.037550695
234	0xbd25ab77	-0.040446725
235	0x3d312aed	0.043253828
236	0x3d2a378b	0.041556876
237	0x3dc1f116	0.094698116
238	0x3dd038e3	0.101671
239	0x3da51123	0.08059909
240	0x3e3e33cd	0.18574448
241	0xbd130774	-0.03589578
242	0x3d8a9039	0.067657895
243	0x3db4eddd	0.08834431
244	0xbcef2fd3	-0.029197609
245	0xbda0c69d	-0.078503825
246	0x3d84d916	0.06486718
247	0x3d5156e2	0.05110825
248	0x3cef9a48	0.029248372
249	0xbdbea53f	-0.09308862
250	0xbdeb0491	-0.1147548
251	0x3dd71577	0.10502141
252	0xbdc12fe5	-0.09432963
253	0x3dff952b	0.124796234
254	0xbc6961ad	-0.014244479
255	0x3da6a924	0.0813773

network.0.bias f4 [256]
0	0x35809c70	9.582272e-07
1	0x3581ff55	9.68556e-07
2	0x37f39d08	2.904098e-05
3	0x36afa27a	5.234321e-06
4	0xb617f73c	-2.2644663e-06
5	0xb6bbbced	-5.595028e-06
6	0xb78cee26	-1.6800197e-05
7	0x36a58aee	4.9335567e-06
8	0xb73d7a28	-1.129372e-05
9	0x3701f588	7.746166e-06
10	0x351a6338	5.7513853e-07
11	0xb72410a6	-9.779038e-06
12	0x35229a96	6.0574655e-07
13	0x378531b4	1.587798e-05
14	0x374436d8	1.169528e-05
15	0x37a957cd	2.0187255e-05
16	0xb74fa37b	-1.2376225e-05
17	0x3628fdbd	2.5181646e-06
18	0x34f64fa0	4.5879005e-07
19	0xb7b1c010	-2.118948e-05
20	0xb621e538	-2.4124292e-06
21	0xb49519b6	-2.777212e-07
22	0x38b10e05	8.442629e-05
23	0xb6a1ae9b	-4.8185007e-06
24	0x3621001c	2.3990933e-06
25	0xb689fa9e	-4.112094e-06
26	0xb55ada18	-8.1528697e-07
27	0xb79980c4	-1.8298982e-05
28	0xb6322c42	-2.6549828e-06
29	0x3670d2aa	3.588541e-06
30	0xb7008391	-7.660027e-06
31	0xb72d54f6	-1.0331385e-05
32	0x378535e6	1.5879934e-05
33	0xb672b634	-3.6166866e-06
34	0xb6316086	-2.643124e-06
35	0xb771c26c	-1.4409987e-05
36	0x365e15ce	3.309327e-06
37	0x36c2f7af	5.8104847e-06
38	0xb62b2cff	-2.5507177e-06
39	0xb58e6f40	-1.0612202e-06
40	0x3784fac4	1.5852398e-05
41	0xb72da78d	-1.03506145e-05
42	0x3693a7ee	4.400491e-06
43	0xb6d6cca6	-6.401521e-06
44	0x3687e87a	4.0503774e-06
45	0x342a5080	1.586177e-07
46	0x37e6aa8b	2.7497552e-05
47	0x37200484	9.5377945e-06
48	0xb75c440e	-1.3128867e-05
49	0x370f40ea	8.538578e-06
50	0xb6a6aa10	-4.9669834e-06
51	0x374adffb	1.2092288e-05
52	0xb6b9a87e	-5.5330447e-06
53	0xb72e9520	-1.0405929e-05
54	0x36bb8208	5.588172e-06
55	0xb6d376fb	-6.302141e-06
56	0xb3e2dc00	-1.0563963e-07
57	0x36b6937e	5.441193e-06
58	0x3705e42d	7.980544e-06
59	0xb594834a	-1.1065069e-06
60	0xb75231db	-1.2528583e-05
61	0xb7d38706	-2.5216035e-05
62	0xb785dbf2	-1.5957256e-05
63	0x37482112	1.1928629e-05
64	0xb68381f8	-3.9192346e-06
65	0xb81f0c30	-3.7919905e-05
66	0xb62100d6	-2.3991356e-06
67	0x36a081eb	4.783496e-06
68	0xb5844fa4	-9.857945e-07
69	0xb723dc88	-9.7669035e-06
70	0xb6d5b724	-6.369215e-06
71	0xb77c664a	-1.50441865e-05
72	0xb6162152	-2.2371137e-06
73	0x35d829e2	1.6105444e-06
74	0x373c6706	1.122966e-05
75	0x37b9f83b	2.216931e-05
76	0xb4e93b10	-4.3442606e-07
77	0x36adc472	5.178671e-06
78	0xb55e7f00	-8.2886254e-07
79	0x3484273c	2.4615463e-07
80	0x370443e9	7.883625e-06
81	0x372d9895	1.0347129e-05
82	0xb601bfee	-1.9334216e-06
83	0xb633db7b	-2.6800833e-06
84	0xb6eb17fc	-7.006338e-06
85	0xb4c7ac14	-3.7191842e-07
86	0x376193b8	1.34454385e-05
87	0x373f5c70	1.1406009e-05
88	0xb5e05d53	-1.6716461e-06
89	0xb81400ac	-3.5286575e-05
90	0xb80a6f13	-3.300521e-05
91	0x36a75448	4.9867995e-06
92	0xb5ba4b7c	-1.3880049e-06
93	0xb79a9a28	-1.8430015e-05
94	0xb64443de	-2.924578e-06
95	0x36af2104	5.21925e-06
96	0x3689a9b0	4.1026724e-06
97	0xb71d25ed	-9.3667595e-06
98	0x3720763d	9.564273e-06
99	0xb75a2645	-1.3002723e-05
100	0x371508a8	8.8831075e-06
101	0xb5f33b13	-1.8122104e-06
102	0x369b4c20	4.628222e-06
103	0x368135dc	3.8507696e-06
104	0x375bc9bd	1.3100388e-05
105	0xb7351e3f	-1.0795483e-05
106	0xb73f1a7d	-1.1390654e-05
107	0xb7724bc6	-1.4441966e-05
108	0x379f81f6	1.9014795e-05
109	0x35eb2682	1.7520072e-06
110	0x365c04f0	3.2785429e-06
111	0xb6a83b47	-5.013691e-06
112	0x373c2d20	1.121618e-05
113	0xb7238788	-9.747113e-06
114	0xb682e680	-3.9011356e-06
115	0xb4fc3bd0	-4.6982177e-07
116	0xb7b8eaba	-2.2043812e-05
117	0xb6194f28	-2.2844852e-06
118	0xb746029f	-1.180233e-05
119	0x36ff3300	7.6055294e-06
120	0x34eb4c80	4.3827822e-07
121	0x36d1bd5a	6.250729e-06
122	0xb70a93fa	-8.2598945e-06
123	0x36a914c2	5.039009e-06
124	0xb7922327	-1.7420925e-05
125	0xb66b97a3	-3.5105993e-06
126	0x35b3ca66	1.3395445e-06
127	0xb79037c1	-1.71921e-05
128	0xb6306bd9	-2.628882e-06
129	0x37042b1c	7.87785e-06
130	0x369afbb0	4.618858e-06
131	0x36c30a08	5.8126207e-06
132	0x35c1bbbc	1.4434258e-06
133	0x3650d439	3.1117945e-06
134	0xb73550be	-1.080724e-05
135	0xb77d3d65	-1.509427e-05
136	0x374334e5	1.1635221e-05
137	0xb7b5e8f7	-2.1685364e-05
138	0x378745f2	1.6125825e-05
139	0xb64a24d4	-3.0121782e-06
140	0x36883128	4.0588384e-06
141	0x371f7eae	9.506633e-06
142	0x3659bb19	3.2444425e-06
143	0x36b6867a	5.439678e-06
144	0xb6a42544	-4.891919e-06
145	0x35c46fb4	1.4635648e-06
146	0x369433c4	4.41677e-06
147	0xb7582295	-1.2882655e-05
148	0xb63d1169	-2.8173329e-06
149	0xb5a99be6	-1.2636854e-06
150	0x361f54b1	2.3742143e-06
151	0xb6dc8cd4	-6.5729055e-06
152	0xb71d54a7	-9.377639e-06
153	0x3487b645	2.5278328e-07
154	0xb5c3cbf8	-1.4587995e-06
155	0xb5f57f48	-1.8290966e-06
156	0x35f9cce0	1.8611572e-06
157	0x36dcc0f6	6.5789745e-06
158	0xb80efee6	-3.409283e-05
159	0xb7917689	-1.7340544e-05
160	0x360e2d2e	2.1185947e-06
161	0x36b25cd7	5.3156214e-06
162	0xb6d137ad	-6.235167e-06
163	0x37813163	1.5400996e-05
164	0x3726d36c	9.9435965e-06
165	0xb801fdbd	-3.099231e-05
166	0x35ea8880	1.7474085e-06
167	0xb7093934	-8.179155e-06
168	0xb730420c	-1.0505795e-05
169	0xb7815a40	-1.5420024e-05
170	0x3648ae46	2.9903763e-06
171	0x378f5cd4	1.7090155e-05
172	0xb701c9f5	-7.736021e-06
173	0xb6f0a864	-7.1721606e-06
174	0x362d07e8	2.578361e-06
175	0x3744dbee	1.1733717e-05
176	0xb737fc65	-1.0966415e-05
177	0x3692db4d	4.376669e-06
178	0xb75062ce	-1.2420771e-05
179	0xb59437c8	-1.1043094e-06
180	0x36b3f3a9	5.3629815e-06
181	0x35dbc434	1.6373874e-06
182	0xb61dbff7	-2.3506561e-06
183	0xb721e122	-9.648766e-06
184	0xb60534d0	-1.9849285e-06
185	0x350a47d0	5.1513507e-07
186	0x38328b48	4.2568223e-05
187	0x35eba240	1.7556085e-06
188	0xb645af49	-2.9457317e-06
189	0xb75e387c	-1.3245382e-05
190	0xb7946227	-1.768868e-05
191	0xb7e4b890	-2.7265662e-05
192	0x36afdd3a	5.2411606e-06
193	0x37e185f9	2.6884476e-05
194	0xb7581769	-1.2880054e-05
195	0xb593551e	-1.0977126e-06
196	0x370c40fa	8.359779e-06
197	0xb5cbfa76	-1.5197572e-06
198	0x376097df	1.3386801e-05
199	0xb79978f7	-1.829535e-05
200	0xb485d090	-2.492493e-07
201	0xb60f0f9a	-2.1317742e-06
202	0xb6ddf8e6	-6.615289e-06
203	0x3543dc58	7.2963803e-07
204	0x36e010ec	6.67769e-06
205	0x38396841	4.420453e-05
206	0x3572a140	9.0386675e-07
207	0x37b3baeb	2.1425503e-05
208	0x37620fbc	1.3474313e-05
209	0xb6d5f5a5	-6.3764915e-06
210	0x36ecef0b	7.0611763e-06
211	0xb5cef822	-1.5420412e-06
212	0xb69708b6	-4.5011648e-06
213	0xb66cd748	-3.529205e-06
214	0xb6dc3a3d	-6.5632908e-06
215	0x36cdec66	6.1369965e-06
216	0x372b6ecd	1.0218192e-05
217	0xb70ad2ff	-8.274567e-06
218	0xb63a8c18	-2.7797705e-06
219	0x36c62e5a	5.906256e-06
220	0x36e8dca0	6.939823e-06
221	0x362c0432	2.563244e-06
222	0xb752ab76	-1.2556897e-05
223	0xb5fa224f	-1.8636437e-06
224	0x37927029	1.7456785e-05
225	0x364d3c89	3.0582617e-06
226	0x36845b28	3.9445185e-06
227	0x37befa9d	2.2766466e-05
228	0x370797c9	8.081967e-06
229	0x37619acb	1.3447086e-05
230	0x372eb06d	1.04122855e-05
231	0xb4c7a503	-3.71867e-07
232	0x3828917a	4.0189807e-05
233	0x379ef885	1.8950794e-05
234	0xb77263ac	-1.4447531e-05
235	0xb718fabc	-9.118285e-06
236	0x368377d5	3.9180545e-06
237	0x371bf790	9.29636e-06
238	0xb76d469c	-1.4142741e-05
239	0xb792738d	-1.7458364e-05
240	0xb6c66f4e	-5.9138174e-06
241	0xb5aef9b8	-1.3036688e-06
242	0xb74717b9	-1.1866848e-05
243	0x3747f2e4	1.1917877e-05
244	0x3685ae54	3.9840033e-06
245	0x361340e0	2.194247e-06
246	0x3512bea6	5.466667e-07
247	0xb73268a3	-1.0633989e-05
248	0xb78380b1	-1.5676344e-05
249	0xb7479a8a	-1.1897306e-05
250	0x375ee7da	1.3286213e-05
251	0xb5f3ed6c	-1.817401e-06
252	0xb670c0bd	-3.5874975e-06
253	0x372ec11a	1.0416168e-05
254	0xb5e5497e	-1.7083219e-06
255	0x37381da8	1.09741595e-05

network.1.weight f4 [256]
0	0x3f5a1f7b	0.85204285
1	0x3f71dfbb	0.9448201
2	0x3f7388d6	0.9513067
3	0x3f5b16c8	0.85581636
4	0x3f668f02	0.9006196
5	0x3f625d36	0.8842348
6	0x3f7dd623	0.9915487
7	0x3f7101a8	0.9414315
8	0x3f5f06e3	0.87119883
9	0x3f7a42e0	0.97758293
10	0x3f5060db	0.8139779
11	0x3f72c105	0.94825774
12	0x3f5b64c3	0.85700625
13	0x3f77be83	0.9677507
14	0x3f6ae59f	0.91756624
15	0x3f715f34	0.94285893
16	0x3f7600fc	0.9609525
17	0x3f63a8fe	0.88929737
18	0x3f69372a	0.910998
19	0x3f77161c	0.9651811
20	0x3f5ca2f3	0.8618614
21	0x3f53b318	0.8269515
22	0x3f80a934	1.0051637
23	0x3f57acfe	0.8424834
24	0x3f6f0fa2	0.9338323
25	0x3f7852bc	0.9700124
26	0x3f61b5eb	0.8816821
27	0x3f6e32be	0.93046176
28	0x3f6a1210	0.9143381
29	0x3f72fc6d	0.9491642
30	0x3f7dfbaf	0.99212164
31	0x3f719820	0.9437275
32	0x3f6da988	0.9283681
33	0x3f6c157f	0.922203
34	0x3f68a46f	0.90875906
35	0x3f7b751b	0.98225564
36	0x3f7fe16c	0.9995334
37	0x3f6bdaba	0.92130625
38	0x3f672c4c	0.90301967
39	0x3f55e521	0.8355275
40	0x3f6c7c47	0.9237713
41	0x3f63f365	0.89043266
42	0x3f54d88b	0.8314292
43	0x3f53c07e	0.82715595
44	0x3f6e2ec9	0.9304014
45	0x3f6d8efa	0.9279629
46	0x3f676420	0.90387154
47	0x3f7a4c68	0.97772837
48	0x3f78979a	0.97106326
49	0x3f63db27	0.89006275
50	0x3f70a418	0.9400039
51	0x3f73624a	0.9507185
52	0x3f672e1c	0.9030473
53	0x3f5e0fa9	0.86742646
54	0x3f71f8be	0.94520175
55	0x3f5bd717	0.85875076
56	0x3f6e8aaf	0.93180364
57	0x3f569e25	0.8383506
58	0x3f661b53	0.89885443
59	0x3f73853c	0.95125175
60	0x3f783b98	0.9696593
61	0x3f788f8e	0.9709405
62	0x3f7e3f1b	0.9931504
63	0x3f73276c	0.9498203
64	0x3f6c68a7	0.92347187
65	0x3f79c509	0.97566277
66	0x3f5c4ee8	0.860579
67	0x3f6f047f	0.93366235
68	0x3f7fafac	0.9987743
69	0x3f64bbed	0.8934925
70	0x3f813019	1.0092803
71	0x3f7b4791	0.98156077
72	0x3f6863af	0.90777105
73	0x3f65eeb4	0.8981736
74	0x3f7df3fc	0.99200416
75	0x3f7e28ee	0.99281204
76	0x3f6b9d12	0.92036545
77	0x3f637272	0.88846505
78	0x3f573b1c	0.8407457
79	0x3f53f771	0.8279944
80	0x3f60fec0	0.8788872
81	0x3f6bcfb3	0.921138
82	0x3f54c293	0.83109397
83	0x3f686122	0.9077321
84	0x3f6871b5	0.90798503
85	0x3f5da7d4	0.8658421
86	0x3f886e39	1.0658637
87	0x3f6d33b3	0.9265701
88	0x3f634d12	0.88789475
89	0x3f660e73	0.898658
90	0x3f706288	0.93900347
91	0x3f64ca39	0.8937107
92	0x3f6cbd17	0.9247603
93	0x3f81338c	1.0093856
94	0x3f6c80f1	0.9238425
95	0x3f5b1f6f	0.8559484
96	0x3f7d8a0b	0.9903876
97	0x3f7014e2	0.93781865
98	0x3f59314f	0.84840864
99	0x3f701a6c	0.93790317
100	0x3f6832d8	0.9070258
101	0x3f577211	0.84158427
102	0x3f69643b	0.91168565
103	0x3f62a591	0.88533884
104	0x3f7ca743	0.9869272
105	0x3f6c1646	0.92221487
106	0x3f60470e	0.8760842
107	0x3f74a281	0.9556046
108	0x3f701d63	0.9379484
109	0x3f6b2184	0.91848016
110	0x3f76d090	0.9641199
111	0x3f6674f1	0.9002219
112	0x3f69a5fd	0.91268903
113	0x3f776bf3	0.9664909
114	0x3f64410c	0.89161754
115	0x3f77aaa5	0.9674476
116	0x3f69dddf	0.91354173
117	0x3f55e845	0.8355754
118	0x3f659887	0.89685863
119	0x3f74e8d9	0.956678
120	0x3f5ca60b	0.8619086
121	0x3f7c07b8	0.9844928
122	0x3f6b73c7	0.9197354
123	0x3f8061bb	1.0029825
124	0x3f75fe1c	0.96090865
125	0x3f5ad232	0.8547698
126	0x3f6a8d1f	0.91621584
127	0x3f7b9aeb	0.9828326
128	0x3f5a444d	0.8526047
129	0x3f69f75e	0.9139308
130	0x3f6d07ce	0.92590034
131	0x3f61bf3a	0.88182414
132	0x3f5bcb7c	0.8585737
133	0x3f653c76	0.8954538
134	0x3f82dd5e	1.0223806
135	0x3f6a26db	0.9146554
136	0x3f65c917	0.89759964
137	0x3f74f148	0.95680666
138	0x3f65c0dc	0.89747405
139	0x3f588a58	0.84586096
140	0x3f7264e6	0.9468521
141	0x3f80fd03	1.0077213
142	0x3f6cb294	0.9245999
143	0x3f51b9ed	0.81924325
144	0x3f830d01	1.0238343
145	0x3f63446f	0.88776296
146	0x3f65c020	0.89746284
147	0x3f6674f9	0.90022236
148	0x3f6649a7	0.89956135
149	0x3f5b2f06	0.8561863
150	0x3f5bc849	0.85852486
151	0x3f78ccae	0.97187316
152	0x3f6d602f	0.9272489
153	0x3f538bbe	0.82635105
154	0x3f7e8b23	0.99431056
155	0x3f683626	0.90707624
156	0x3f7cc01f	0.98730654
157	0x3f6ca65f	0.9244136
158	0x3f7bacbe	0.9831046
159	0x3f6ac9dc	0.9171426
160	0x3f731c2d	0.9496487
161	0x3f59d7bf	0.8509483
162	0x3f640752	0.8907367
163	0x3f61b1d6	0.8816198
164	0x3f6c97bb	0.9241902
165	0x3f81bd71	1.0135938
166	0x3f73e4eb	0.95271176
167	0x3f6b962c	0.9202602
168	0x3f6fdedb	0.93699425
169	0x3f7d60c7	0.98975796
170	0x3f51f99c	0.820215
171	0x3f6aa954	0.91664624
172	0x3f657dc7	0.89645046
173	0x3f7fe643	0.99960726
174	0x3f67cfc0	0.90551376
175	0x3f77d2c8	0.96806
176	0x3f8572de	1.042568
177	0x3f74279e	0.9537295
178	0x3f71d63b	0.94467515
179	0x3f62a9dc	0.88540435
180	0x3f7b4be4	0.98162675
181	0x3f63468e	0.8877953
182	0x3f6a564c	0.9153793
183	0x3f6b880e	0.9200448
184	0x3f7b3563	0.98128337
185	0x3f501dda	0.8129555
186	0x3f823d42	1.0174944
187	0x3f7df7a3	0.9920599
188	0x3f6b1058	0.91821814
189	0x3f735af7	0.95060676
190	0x3f6c94c5	0.92414504
191	0x3f7c04c4	0.9844477
192	0x3f6d8732	0.92784417
193	0x3f672bb2	0.9030105
194	0x3f79bcef	0.97553915
195	0x3f6d18e0	0.9261608
196	0x3f6fd95d	0.93691045
197	0x3f6081c5	0.8769801
198	0x3f84b8f8	1.0368948
199	0x3f6ca5a2	0.92440236
200	0x3f6a4f8a	0.91527617
201	0x3f79ddf2	0.97604287
202	0x3f65bad2	0.8973819
203	0x3f6ae642	0.91757596
204	0x3f5ca6f1	0.8619223
205	0x3f8771cf	1.0581607
206	0x3f7807cd	0.96886903
207	0x3f7373b0	0.950984
208	0x3f7c46cd	0.98545533
209	0x3f7d5d9b	0.98970956
210	0x3f81382b	1.0095266
211	0x3f5bcaa9	0.8585611
212	0x3f73c208	0.95217943
213	0x3f69c270	0.91312313
214	0x3f736961	0.9508267
215	0x3f5f9b0c	0.8734596
216	0x3f693721	0.91099745
217	0x3f7dd165	0.99147636
218	0x3f77a719	0.96739346
219	0x3f77a954	0.9674275
220	0x3f7e75ec	0.99398685
221	0x3f6fe6fc	0.9371183
222	0x3f66d573	0.9016945
223	0x3f6610be	0.89869297
224	0x3f76d5f6	0.9642023
225	0x3f641a7b	0.89102906
226	0x3f558ae0	0.8341503
227	0x3f8394d0	1.0279789
228	0x3f7c2968	0.9850068
229	0x3f78f59f	0.9724979
230	0x3f75fefa	0.9609219
231	0x3f703a93	0.9383938
232	0x3f7af6fa	0.98033106
233	0x3f6e3472	0.93048775
234	0x3f70c932	0.94057
235	0x3f5c3c4e	0.8602952
236	0x3f6f4101	0.93458563
237	0x3f57c7dc	0.84289336
238	0x3f65930d	0.89677507
239	0x3f7bd0fe	0.9836577
240	0x3f6768d9	0.9039436
241	0x3f5e32f5	0.86796504
242	0x3f7da6b2	0.9908248
243	0x3f7d8e11	0.990449
244	0x3f56f69d	0.8397005
245	0x3f5b2d73	0.85616225
246	0x3f530f4a	0.82445204
247	0x3f635acb	0.88810414
248	0x3f583ea6	0.84470594
249	0x3f7d4cd9	0.98945385
250	0x3f734299	0.95023495
251	0x3f637750	0.8885393
252	0x3f5ffd9b	0.87496346
253	0x3f6a4d9c	0.9152467
254	0x3f69c7a8	0.91320276
255	0x3f61ded2	0.8823062

network.1.bias f4 [256]
0	0xbcf741b0	-0.03018269
1	0xbdb43849	-0.08799798
2	0xbd7f3871	-0.062309686
3	0xbd9c8346	-0.07642226
4	0xbdde3bea	-0.108512715
5	0xbd00ad05	-0.031415004
6	0xbdb6888d	-0.08912764
7	0xbcc9eff4	-0.024650551
8	0xbd9613eb	-0.07328018
9	0xbdac96e0	-0.084272146
10	0xbd8d72dc	-0.06906673
11	0xbdc806f3	-0.097669505
12	0xbd168381	-0.036746506
13	0xbded1db8	-0.11577934
14	0xbda85dab	-0.08220991
15	0xbd6a5aaa	-0.05721537
16	0x3ccc09ad	0.024906958
17	0xbd90d4b7	-0.07071822
18	0xbbd1887b	-0.0063944436
19	0xbd157729	-0.036490593
20	0xbd8ca667	-0.06867676
21	0xbd02529a	-0.031817056
22	0xbdad95f2	-0.084758654
23	0xbdb86b6f	-0.09004866
24	0xbd85e2da	-0.06537409
25	0x3da14ae9	0.07875616
26	0x3c273fdd	0.010208097
27	0xbd691df9	-0.05691335
28	0x3d58e19a	0.052949525
29	0xbd4df62f	-0.050283607
30	0x3a8f35c8	0.0010926062
31	0xbc34194c	-0.010992359
32	0xbd31f567	-0.043446925
33	0xbcd6ca93	-0.026219642
34	0xbd323eaf	-0.04351681
35	0x3d119b76	0.03554865
36	0xbd79480d	-0.06085973
37	0xbdcd2e27	-0.100185685
38	0xbc8d8120	-0.017273486
39	0xbdbf3c51	-0.09337676
40	0xbd65b763	-0.056083094
41	0xbd600073	-0.05468793
42	0xbc9fc559	-0.019503282
43	0xbb164bf1	-0.0022933448
44	0xbc3d11b1	-0.0115398625
45	0xbd66db99	-0.05636177
46	0xbd8d43cf	-0.06897699
47	0xbd933cf7	-0.071893625
48	0x3c819d1b	0.015821984
49	0xbd8d7ae7	-0.069082074
50	0xbe1723e7	-0.1475979
51	0xbdd1e10c	-0.102480024
52	0xbc5cce7d	-0.013476965
53	0xbd3b8119	-0.045777414
54	0xbd88c5ec	-0.066783756
55	0xbd2add04	-0.041714683
56	0xbd11972d	-0.035544563
57	0xbd317d50	-0.043332398
58	0xbdbb77a7	-0.09153681
59	0xbd32430b	-0.04352097
60	0xbd9f5e5c	-0.077816695
61	0x3d37eb73	0.044902276
62	0xbd935388	-0.07193667
63	0x3a6825b0	0.00088557135
64	0xbdead25e	-0.114659056
65	0x3dd8dd22	0.10589053
66	0x3d11a1aa	0.035554565
67	0x3d5a8942	0.053353556
68	0xbc959b8d	-0.018262649
69	0xbde8a513	-0.113596104
70	0xbded8eba	-0.115994886
71	0xbdcfe01d	-0.10150168
72	0xbcc066fc	-0.023486607
73	0xbd293980	-0.041314602
74	0xbd84f704	-0.06492427
75	0xbdcd47e7	-0.1002348
76	0xbb2542c8	-0.0025216807
77	0xbd33ae6c	-0.043867514
78	0xbd00f171	-0.031480256
79	0xbdd154cd	-0.102212526
80	0x3d6a7f9d	0.057250608
81	0xbdc3bf3a	-0.09557958
82	0xbd308a57	-0.04310068
83	0xbb1e5d30	-0.002416443
84	0xbdcf9fea	-0.10137923
85	0x3d39121e	0.045183294
86	0x3d5aeffb	0.05345152
87	0xbd9895fb	-0.074504815
88	0xbd698470	-0.057011068
89	0xbdced369	-0.10098917
90	0xbdd0ae9a	-0.101895526
91	0x3c8d9510	0.017282993
92	0xbd7a2011	-0.061065737
93	0xbd201d92	-0.0390907
94	0xbd959184	-0.073031455
95	0x3b904345	0.0044025504
96	0xbd8f885e	-0.07008432
97	0x3d1b258f	0.037877616
98	0xbda9de12	-0.0829431
99	0xbd84a3b7	-0.06476539
100	0xbdcc6b77	-0.09981435
101	0xbd83e6a7	-0.06440478
102	0xbd4ab04f	-0.049484547
103	0xbd62d523	-0.055379044
104	0x3cb039a9	0.02151187
105	0xbd662908	-0.056191474
106	0xbdb9be98	-0.09069556
107	0xbd09d7bc	-0.033653006
108	0xbd6c24e9	-0.057652388
109	0xbd1551cd	-0.036454964
110	0xbd4afc5c	-0.049557075
111	0xbdbf9981	-0.093554504
112	0xbdae69c4	-0.08516267
113	0xbd7bee54	-0.061506584
114	0xbde4433c	-0.111456364
115	0xbd00e24e	-0.03146582
116	0xbdc203c5	-0.09473375
117	0xbde30f1d	-0.11086867
118	0xbd7555b8	-0.0598962
119	0xbd1a2a28	-0.03763786
120	0xbd25e429	-0.040500794
121	0xbd10d351	-0.035357777
122	0xbe105ddc	-0.14098305
123	0xbdbcc966	-0.09218101
124	0xbdd6ed31	-0.104944594
125	0xbda5098a	-0.0805846
126	0xbde28485	-0.11060432
127	0xbca2ece6	-0.019888353
128	0xbc0fb555	-0.00877126
129	0xbc72f1a5	-0.01482812
130	0x3cb878a7	0.022518469
131	0xbd9b3fed	-0.07580552
132	0xbd54b40a	-0.05192951
133	0xbd05fe71	-0.032713357
134	0xbe0dfa53	-0.13865022
135	0xbc6f692a	-0.014612475
136	0xbdf9f039	-0.12204022
137	0xbdfcdf06	-0.12347226
138	0xbd019a20	-0.031641126
139	0xbdb3e957	-0.087847404
140	0xbdb98dc7	-0.09060245
141	0xbc689529	-0.014195719
142	0x3cc2787c	0.023739092
143	0xbdbb3176	-0.09140293
144	0x3d805c1e	0.0626757
145	0xbd8b9d5a	-0.06817122
146	0xbcd630c1	-0.026146295
147	0xbc2f12a1	-0.010685594
148	0xbcafa08b	-0.021438858
149	0xbc8eea87	-0.017445816
150	0xbd31824b	-0.043337148
151	0xbd7d1b87	-0.06179383
152	0xbb89bc0a	-0.004203324
153	0xbd834070	-0.06408775
154	0xbccb45ef	-0.02481362
155	0x3c707279	0.01467573
156	0xbd1dad01	-0.038495068
157	0xbc1b7b7a	-0.009489888
158	0xbdeba8bd	-0.11506794
159	0x3ca9f95d	0.020748788
160	0xbcab3b20	-0.020902216
161	0xbda76512	-0.081735745
162	0xbdb3a269	-0.08771212
163	0xbe234da0	-0.1594758
164	0xbb1ab02f	-0.0023603549
165	0xbda80d2e	-0.08205639
166	0xbd8d5c42	-0.069023624
167	0xbd1a32f7	-0.03764626
168	0x3c0a2fb1	0.008434222
169	0xbe175ae8	-0.14780772
170	0xbd585548	-0.052815706
171	0xbcef6ff1	-0.029228183
172	0xbd5cf741	-0.053946737
173	0xbd8d63ca	-0.06903799
174	0xbd0cbc07	-0.034359004
175	0xbe0f0334	-0.13966066
176	0x3d99b169	0.075045414
177	0xbdac6a78	-0.08418745
178	0xbd2d10da	-0.0422524
179	0xbd470e90	-0.048597872
180	0xbcac48a6	-0.021030735
181	0xbdc01b98	-0.09380263
182	0xbd269252	-0.040666886
183	0xbd2fb8b0	-0.04290074
184	0x3d7e470c	0.062079474
185	0xbdcac424	-0.09900692
186	0x3d914fb9	0.07095284
187	0xbd16f568	-0.03685513
188	0xbd9d4d21	-0.07680727
189	0x3c8ac7ee	0.016941037
190	0xbd186d99	-0.037213895
191	0x3ba7a83a	0.0051164897
192	0x3cac9913	0.021069085
193	0xbcdfe2b9	-0.02732979
194	0xbcf31373	-0.02967236
195	0xbcfe55f8	-0.031046852
196	0xbda8ac7a	-0.08236022
197	0x3d558071	0.052124444
198	0xbcbf64bd	-0.023363465
199	0xbdd11da4	-0.102107316
200	0xbd37e182	-0.044892795
201	0xbd2a003b	-0.041504126
202	0xbc7f64a1	-0.015587957
203	0x3d29c9f4	0.041452363
204	0xbdac6cd9	-0.084191985
205	0xbc0ac28c	-0.008469235
206	0xbd21f338	-0.039538592
207	0xbd6db756	-0.05803617
208	0xbdd3fbc9	-0.103507586
209	0xbda8f405	-0.08249668
210	0x3c8698a2	0.016430203
211	0xbd993048	-0.07479912
212	0xbca271f8	-0.019829735
213	0xbdc88223	-0.097904466
214	0xbb10bf3d	-0.0022086643
215	0xbb000222	-0.0019532521
216	0xbd0bbc2a	-0.034114994
217	0x3dee2be8	0.11629468
218	0xbc8eacaa	-0.017416317
219	0xbda8dc49	-0.08245141
220	0xbdf321cb	-0.1187168
221	0xbe1a5d8b	-0.15074746
222	0xbd4a16ce	-0.049338154
223	0xbc976267	-0.01847954
224	0xbc900eef	-0.017585246
225	0xbde9161f	-0.113811724
226	0xbde6e312	-0.11273779
227	0x3c45c6bd	0.012071309
228	0xbdabd5fa	-0.08390422
229	0xbcaa00dd	-0.020752365
230	0xbc1fc928	-0.009752549
231	0xbd912903	-0.070879005
232	0xbcfeb39a	-0.0310915
233	0xbdc35957	-0.095385246
234	0xbd7b2e1b	-0.061323266
235	0xbd924de7	-0.07143765
236	0xbbb95c7b	-0.0056567765
237	0xbdcddb08	-0.100515425
238	0xbdb398b7	-0.087693624
239	0x3bba4a49	0.005685125
240	0xbda6bcf0	-0.08141506
241	0xbc9a2920	-0.018818438
242	0x3b8df8e4	0.0043326486
243	0x3da660b0	0.081239104
244	0xbdf73149	-0.12069947
245	0xbdd13b0e	-0.10216342
246	0xbd84b33b	-0.06479498
247	0xbd583e69	-0.052793894
248	0xbd6cd5bc	-0.05782102
249	0x3d8b5646	0.06803565
250	0x3da2f8db	0.07957622
251	0xbcd2d5f7	-0.025736792
252	0x3b18dc2f	0.00233246
253	0xbd24d54a	-0.04024247
254	0x3c8709ae	0.016484108
255	0xbdb9c98e	-0.09071647

network.1.running_mean f4 [256]
0	0xbac8ec60	-0.0015329234
1	0xbca2168b	-0.01978614
2	0xbc52f229	-0.012875118
3	0xbc6b15f2	-0.014348494
4	0x3c7f890b	0.015596638
5	0x3bf6f766	0.0075368164
6	0x3c8ebc2f	0.017423717
7	0xbcb467be	-0.022022124
8	0x3bb26373	0.005443984
9	0xbc4636f4	-0.012098063
10	0xbc57dfa8	-0.013175882
11	0xbcc9410f	-0.024567155
12	0x3ce9a15c	0.028519325
13	0xbd0e735d	-0.034777988
14	0xbd1ef427	-0.03880706
15	0xbbe55933	-0.0069991588
16	0xbba5335a	-0.005041522
17	0x3c013b90	0.007887736
18	0xbb8fddc0	-0.0043904483
19	0xbd00e47b	-0.031467896
20	0x3c850e4b	0.016242167
21	0x3cbfb2d9	0.02340071
22	0xbc21c329	-0.00987319
23	0xbc3195b6	-0.0108389165
24	0xbc632f10	-0.013866201
25	0x3c6ea1ef	0.014564975
26	0x3c9dd795	0.019267837
27	0x39009b60	0.00012264913
28	0xbd0012df	-0.031267997
29	0xbc9bd1f2	-0.019021008
30	0xbc513bec	-0.012770634
31	0x3c3e5db7	0.011619023
32	0x3c2a509b	0.010395194
33	0x3a008a83	0.00049034524
34	0x3bcc8d06	0.0062423972
35	0xbc98dc83	-0.018659836
36	0xbc858674	-0.016299464
37	0xbcb38d72	-0.021918032
38	0xbc398ff5	-0.011325826
39	0x3a5a5840	0.00083291903
40	0x3be4c5ee	0.006981603
41	0xbccf7435	-0.025323967
42	0x3c678594	0.014130969
43	0xbc53cb50	-0.012926891
44	0x3cb7a8e7	0.022419406
45	0x3c9d376e	0.01919147
46	0x3c3e9bb0	0.0116337985
47	0xbc4e1d5a	-0.01258024
48	0x3c50c13c	0.012741383
49	0x3c403c01	0.011733056
50	0xbbe0a6fa	-0.0068558427
51	0xbac87474	-0.0015293495
52	0xbd01591a	-0.031579114
53	0x3c700c41	0.014651359
54	0xbd37c067	-0.044861224
55	0xbaa0e6db	-0.0012275832
56	0x3c5c9d20	0.013465196
57	0xbba0e29f	-0.004909828
58	0xbc8e0c40	-0.017339826
59	0xbcf031b2	-0.029320572
60	0xbc670bd0	-0.014101937
61	0x3c136207	0.0089955395
62	0x3c824cb5	0.015905717
63	0xbb3de680	-0.00289765
64	0xbd049f61	-0.032378558
65	0x3b1d18ce	0.0023971084
66	0x3c40712c	0.011745732
67	0xbcf6b5fa	-0.03011607
68	0x3bba6e7f	0.0056894417
69	0x3bf0782e	0.0073385453
70	0x3b621070	0.003449466
71	0xbcbd53da	-0.023111273
72	0x3bef7a35	0.0073082694
73	0x3ca36967	0.01994772
74	0x3b23e530	0.0025008433
75	0xbcb11baa	-0.021619637
76	0x3c55e70c	0.013055574
77	0xbb2fe92f	-0.002684187
78	0x3b8702f0	0.004120223
79	0xbabb9d94	-0.001431393
80	0xbb18a51c	-0.0023291772
81	0xbcd2ba63	-0.025723642
82	0xbd1b7a94	-0.037958696
83	0xba7c56fb	-0.0009625998
84	0xbc150117	-0.009094498
85	0x3c83a35b	0.016069105
86	0xbc2b0002	-0.010437014
87	0x3c241fea	0.0100173745
88	0xba083898	-0.00051964214
89	0xbb1dd91c	-0.0024085706
90	0xbb826470	-0.0039792582
91	0xbc8c0d74	-0.017096259
92	0xbc73fd54	-0.014891941
93	0x3a35b66d	0.00069317856
94	0xbbaa0583	-0.0051886453
95	0x3c86ed7a	0.01647066
96	0xbcab1fb5	-0.020889143
97	0xbb03eccf	-0.0020130163
98	0xbcc18509	-0.023623006
99	0xbc517019	-0.012783074
100	0x3b984045	0.0046463334
101	0x3c898e5b	0.016791513
102	0x3cc38817	0.023868604
103	0xbcad76a0	-0.021174729
104	0x3b89c26d	0.0042040856
105	0xbbb77b4a	-0.005599414
106	0x3b4eb740	0.003154233
107	0xbb81424e	-0.0039446717
108	0xbc165b54	-0.009177048
109	0xbb837f45	-0.0040129744
110	0x3c0690a0	0.008213192
111	0xbd17c077	-0.037048783
112	0xbba1ec19	-0.004941475
113	0x3a7d4f40	0.0009662993
114	0xbca99aa8	-0.020703629
115	0x3bc88ca0	0.0061202794
116	0xbbc40cf5	-0.00598299
117	0xbcbcc949	-0.023045199
118	0x3ca0a557	0.01961009
119	0xbc7fd246	-0.015614098
120	0xbc0248ba	-0.00795191
121	0xbd34dca5	-0.044155736
122	0x3c56df65	0.013114785
123	0xbbac976e	-0.0052670753
124	0xbc8e9675	-0.017405728
125	0x3c6c3c20	0.014418632
126	0xba2b55c8	-0.0006535915
127	0xbcdc66e8	-0.026904538
128	0x3c12539c	0.008931067
129	0x3b5df790	0.0033869483
130	0x3c1f7e40	0.00973469
131	0xbc51d856	-0.012807926
132	0x3ba229fc	0.0049488526
133	0xbc19f57a	-0.009396905
134	0xbc860e7d	-0.01636433
135	0x3c0d32e1	0.0086180875
136	0xbd22927f	-0.03969049
137	0xbc8b399f	-0.01699525
138	0xbb6b31a8	-0.0035887752
139	0x3bbb946a	0.0057244794
140	0xbcbdff75	-0.0231931
141	0x3ce29a24	0.02766139
142	0xbc632b97	-0.013865373
143	0xbba6a6ef	-0.005085818
144	0xbac7435f	-0.0015202573
145	0x3b828bf7	0.0039839703
146	0x3a79b261	0.0009525177
147	0x3cb6e794	0.022327222
148	0x3bdcccbd	0.006738274
149	0x3b476e42	0.003043071
150	0x3c5d3102	0.013500454
151	0xbc7f67bc	-0.015588697
152	0xbc31bba9	-0.010847964
153	0xbbc57d79	-0.0060269204
154	0x3c590828	0.0132465735
155	0xbc1321ef	-0.008980258
156	0x3c1a8086	0.009430056
157	0xbce8039f	-0.02832204
158	0xbb66fc44	-0.0035245577
159	0xbc6cced4	-0.014453609
160	0xbc9cf9bc	-0.019162051
161	0x3bf1f3d3	0.0073838024
162	0x3a5058e0	0.0007947814
163	0x3c011524	0.0078785755
164	0x3b80f42b	0.003935357
165	0xbc45dff2	-0.0120773185
166	0xbbb4fe60	-0.005523488
167	0x3d0ce4fd	0.034398068
168	0x3cdc33bc	0.026880138
169	0xbc5dc8d1	-0.013536648
170	0x3c71aa25	0.014750038
171	0x3a3ebe50	0.00072762836
172	0x3b374eef	0.0027970632
173	0xbc4d613e	-0.012535391
174	0x3d06b3d7	0.032886352
175	0xbcc4bc12	-0.02401546
176	0x3ca4ac98	0.02010183
177	0xbc4ac1a6	-0.012375271
178	0x3c98f02a	0.018669207
179	0x3cd9571a	0.026530791
180	0x3caa476b	0.020786008
181	0xbbc12709	-0.005894546
182	0x3ba73b94	0.005103538
183	0xbaf04fe6	-0.0018334358
184	0x3c829c9e	0.015943822
185	0xbb6de2f0	-0.0036298595
186	0x3cba593c	0.022747628
187	0x3cba4212	0.022736583
188	0x3c47c6cb	0.012193392
189	0xb9e129c0	-0.0004294645
190	0xbbe216bf	-0.006899684
191	0x3a912551	0.0011073743
192	0xbd02ff9e	-0.031982057
193	0xbbfbdf51	-0.0076865335
194	0xbca86a68	-0.020558551
195	0x3c5c3449	0.0134402
196	0xbce4d407	-0.027933134
197	0x3cb400d6	0.021973055
198	0xba444992	-0.00074877695
199	0x3c72e4e0	0.014825076
200	0xbc05efab	-0.008174817
201	0x3cbf82aa	0.023377735
202	0xbc327522	-0.010892184
203	0x3bace95b	0.0052768416
204	0xbd0753ca	-0.03303889
205	0x3b06b456	0.0020554266
206	0x3cb35e5c	0.02189558
207	0xbc1bed1f	-0.009516983
208	0x3c671639	0.014104419
209	0x3b5f510c	0.0034075407
210	0xbb09ac9b	-0.0021007422
211	0x3ce83e33	0.028349971
212	0x3beca43e	0.0072217276
213	0xbba07c86	-0.004897657
214	0x3b75e024	0.0037517631
215	0xbc68d87b	-0.014211769
216	0xbcb28b14	-0.021794833
217	0x3cbc818a	0.023010988
218	0xbd1f54b4	-0.03889914
219	0x3afab6d0	0.0019127969
220	0xbb7de6c9	-0.0038742295
221	0xbcd8b018	-0.026451156
222	0xbbfa511e	-0.0076390645
223	0xbad180b8	-0.0015983796
224	0xbcab6671	-0.020922871
225	0xbbc99e02	-0.006152869
226	0xbc7cbca6	-0.015425837
227	0x3b0d9184	0.0021601627
228	0xbc42f9a8	-0.011900343
229	0x3d117172	0.03550858
230	0x398be250	0.00026680762
231	0xbd14b25a	-0.0363029
232	0x3b354220	0.0027657822
233	0xb9d08328	-0.0003977057
234	0xbaf970a0	-0.0019030757
235	0xbd1c8cea	-0.038220324
236	0x3b1ea5d9	0.002420774
237	0xbc2624d4	-0.010140616
238	0x3b8c0410	0.004272945
239	0x3ac5e5d2	0.0015098399
240	0xbc04b39b	-0.008099462
241	0xbcd50af7	-0.026006205
242	0x3cb1c966	0.02170248
243	0xbb90dbad	-0.0044207186
244	0xbc507cfe	-0.012725113
245	0xbc3a9e34	-0.011390258
246	0xbcfdb356	-0.030969303
247	0xbcc8de85	-0.024520168
248	0x3bfaba6f	0.007651619
249	0x3c041c0c	0.0080633275
250	0xbcec4663	-0.028842157
251	0xbc1126c8	-0.008859344
252	0x3cd570df	0.026054798
253	0xbb66a986	-0.0035196259
254	0x3ce6a6d0	0.028155714
255	0x3caf8391	0.02142504

network.1.running_var f4 [256]
0	0x3ef77e6c	0.4833864
1	0x3f79466f	0.973731
2	0x3ec5d711	0.38640645
3	0x3e702493	0.23451452
4	0x3e78e67c	0.24306673
5	0x3ea2f845	0.3183004
6	0x3e7cef90	0.24700761
7	0x3f33a79a	0.70177615
8	0x3e929114	0.2862631
9	0x3e81b736	0.2533509
10	0x3ee0605f	0.43823525
11	0x3ef52bde	0.4788503
12	0x3f0e9ead	0.5571087
13	0x3eba6db8	0.36411834
14	0x3f0a5aa4	0.54044557
15	0x3ec42e27	0.3831646
16	0x3e1b419e	0.1516175
17	0x3eccd876	0.40008897
18	0x3e5fd6fa	0.21859351
19	0x3f028b73	0.5099403
20	0x3efd1557	0.49430344
21	0x3f0e26b4	0.55527806
22	0x3e9dc5c7	0.30814955
23	0x3ef03df8	0.46922278
24	0x3e639430	0.22224498
25	0x3ead1fad	0.3381323
26	0x3e873b47	0.26412413
27	0x3e349a23	0.17636923
28	0x3f583667	0.8445801
29	0x3f034e25	0.51291114
30	0x3e87c9c2	0.26521116
31	0x3e49e789	0.1971723
32	0x3e83b7ab	0.25726065
33	0x3eb1a9f0	0.34699965
34	0x3ed6d04e	0.419558
35	0x3e936971	0.28791383
36	0x3e61cb6b	0.22050254
37	0x3f18e1a0	0.59719276
38	0x3e7d6877	0.24746881
39	0x3eccd6ad	0.40007535
40	0x3e87d704	0.2653123
41	0x3efb267e	0.49052805
42	0x3ed48791	0.4150968
43	0x3ecebcff	0.40378568
44	0x3f07d388	0.53057146
45	0x3eaf7da8	0.34275556
46	0x3ea0abe7	0.3138115
47	0x3e8e3c87	0.27780554
48	0x3f004616	0.5010694
49	0x3ea13605	0.31486526
50	0x3e436be8	0.19084132
51	0x3e6bf28c	0.23041743
52	0x3fb011c4	1.3755422
53	0x3ebaee31	0.3650985
54	0x3f3f18f9	0.7464748
55	0x3ef20622	0.47270304
56	0x3e1da7f9	0.15396108
57	0x3e927774	0.2860676
58	0x3eb750ba	0.35803777
59	0x3ecb2f46	0.39684504
60	0x3e3a55a8	0.18196738
61	0x3ebb0b29	0.36531952
62	0x3e55118f	0.2080748
63	0x3e98d995	0.29853502
64	0x3f3257ba	0.6966511
65	0x3e6e9c99	0.23301925
66	0x3edf10e5	0.43567577
67	0x3f7a98f2	0.97889626
68	0x3e0fb998	0.14035642
69	0x3f733ffb	0.950195
70	0x3ed1433b	0.40871605
71	0x3e764fb0	0.24053836
72	0x3eae0735	0.33989874
73	0x3e72e856	0.23721442
74	0x3ea37501	0.31925204
75	0x3eb2d349	0.34926823
76	0x3e3f789f	0.18698357
77	0x3ed64abf	0.41853902
78	0x3e958996	0.29206532
79	0x3ecb0476	0.3965184
80	0x3ed92dea	0.42417842
81	0x3ee4a259	0.4465511
82	0x3f59f13b	0.85133713
83	0x3e86cb3e	0.26326936
84	0x3ed75663	0.42058095
85	0x3edb0355	0.4277598
86	0x3f067264	0.52518296
87	0x3edafb00	0.42769623
88	0x3e8e077f	0.27740094
89	0x3ea08b90	0.31356478
90	0x3e3c14ed	0.18367358
91	0x3ea0de92	0.31419808
92	0x3e75fa2b	0.24021213
93	0x3ecb35d9	0.3968952
94	0x3e3d24a0	0.18471003
95	0x3eef49a9	0.46735886
96	0x3e624d2a	0.22099748
97	0x3e8e0663	0.27739248
98	0x3e94f783	0.29095086
99	0x3e992f31	0.29918817
100	0x3e7cda25	0.2469259
101	0x3f0acef4	0.54222035
102	0x3e9e1c12	0.3088079
103	0x3efc5109	0.49280575
104	0x3e944cac	0.28964746
105	0x3e6d0b06	0.23148736
106	0x3ea62a3c	0.32454097
107	0x3e62ece7	0.22160684
108	0x3e68d488	0.22737324
109	0x3ef405a4	0.47660553
110	0x3e6894ea	0.22713056
111	0x3fdfc4cf	1.7481936
112	0x3e975317	0.2955558
113	0x3f13751b	0.57600564
114	0x3eb39ba6	0.35079688
115	0x3e5eb521	0.21748783
116	0x3eb20bd2	0.34774643
117	0x3e887f84	0.26659787
118	0x3e6b1e3d	0.22960754
119	0x3ea426f6	0.32060975
120	0x3e8a151d	0.26969233
121	0x3fb707c1	1.4299241
122	0x3e9831d2	0.2972551
123	0x3e78a234	0.24280626
124	0x3e59dc7c	0.21275514
125	0x3ea1e033	0.31616363
126	0x3ef6ff9e	0.48241895
127	0x3e7e12f2	0.24811915
128	0x3ea9df11	0.33178
129	0x3ec44144	0.38331044
130	0x3ee3d703	0.44499978
131	0x3ea83449	0.3285239
132	0x3ea81888	0.32831216
133	0x3e979943	0.29609117
134	0x3ea66cb7	0.32504818
135	0x3e8db473	0.27676734
136	0x3f809a20	1.0047035
137	0x3e8c9839	0.27459887
138	0x3e8039f3	0.25044212
139	0x3e9b1b81	0.3029442
140	0x3f97522a	1.182195
141	0x3ef12ff2	0.47106892
142	0x3f7814b9	0.9690662
143	0x3eab0390	0.33401155
144	0x3e615eee	0.22008869
145	0x3e8a3833	0.26996002
146	0x3ed5f6f6	0.4178998
147	0x3e9cc135	0.30616155
148	0x3e9126d0	0.28349924
149	0x3e628006	0.2211915
150	0x3eb3ed33	0.35141906
151	0x3e9b2d51	0.3030801
152	0x3e690c15	0.22758515
153	0x3e89a183	0.26881036
154	0x3e1b1869	0.1514603
155	0x3e8fd84a	0.28094703
156	0x3e5122de	0.20423457
157	0x3f35efe7	0.71069187
158	0x3e834a22	0.25642496
159	0x3e9f76a8	0.31145215
160	0x3f00a6cb	0.50254506
161	0x3e5a664d	0.21328087
162	0x3e717864	0.23581082
163	0x3e914774	0.28374827
164	0x3e9c01f2	0.30470234
165	0x3e66b555	0.2253011
166	0x3e904fef	0.28185984
167	0x3ec5edf4	0.38658106
168	0x3f7ecd11	0.99531657
169	0x3e5d0831	0.21585156
170	0x3eb1edd6	0.34751767
171	0x3e5c8bc3	0.2153769
172	0x3e85ee30	0.26158285
173	0x3f0bfe1e	0.5468463
174	0x3ee7cd4a	0.4527381
175	0x3ef0a5c6	0.47001475
176	0x3e77299e	0.2413697
177	0x3e881c6c	0.26584184
178	0x3e922867	0.2854645
179	0x3f33e795	0.7027524
180	0x3ed0c58a	0.4077571
181	0x3f70699b	0.9391114
182	0x3e5e5dff	0.21715544
183	0x3ecfec0a	0.4060977
184	0x3e8c65df	0.2742147
185	0x3f27d266	0.6555542
186	0x3ee9c7d7	0.45660278
187	0x3e66dc69	0.22545017
188	0x3e808f89	0.2510951
189	0x3e6b352b	0.229695
190	0x3e7a74fe	0.24458691
191	0x3e7cba47	0.24680434
192	0x3ee7f427	0.4530346
193	0x3eb0bd55	0.3451945
194	0x3e845a3b	0.2585009
195	0x3edcfd6e	0.43162102
196	0x3fa386e6	1.2775543
197	0x3f12ba4a	0.57315505
198	0x3e6aaaed	0.22916766
199	0x3ec9451a	0.39310533
200	0x3e0945f6	0.13405594
201	0x3e56c3b3	0.20973091
202	0x3e4fab6e	0.20280239
203	0x3ea51669	0.3224366
204	0x3ea97470	0.33096647
205	0x3e50a561	0.20375587
206	0x3e3e0d0d	0.18559666
207	0x3edc94ee	0.43082374
208	0x3f0e64a9	0.55622345
209	0x3ead8310	0.33889055
210	0x3e8bc9c2	0.27302366
211	0x3eb6c0f5	0.3569409
212	0x3e99982e	0.29998916
213	0x3e852a79	0.26008967
214	0x3f18584b	0.59509724
215	0x3ea46eb3	0.32115707
216	0x3f2680e5	0.6504043
217	0x3eaff908	0.34369683
218	0x3f08dcd7	0.53461975
219	0x3ee50649	0.44731358
220	0x3f059b24	0.5218985
221	0x3f8a3583	1.079758
222	0x3e9c4bb0	0.30526495
223	0x3e9bc80e	0.30426067
224	0x3f56b441	0.83868796
225	0x3ef36430	0.47537374
226	0x3e87acd5	0.26499048
227	0x3e5c3b99	0.2150711
228	0x3f06b78b	0.52623814
229	0x3f2243e5	0.6338485
230	0x3e4258e5	0.18979223
231	0x3f039fe6	0.5141586
232	0x3e90cbdc	0.28280532
233	0x3e874ae8	0.26424336
234	0x3e7456d1	0.23861243
235	0x3f4a18d5	0.7894414
236	0x3eaa0d5a	0.3321331
237	0x3e5b29c9	0.21402659
238	0x3e892268	0.26784062
239	0x3eb8dd2f	0.3610625
240	0x3e7289cf	0.23685382
241	0x3ec6251b	0.38700184
242	0x3f015533	0.5052063
243	0x3eb886a0	0.3604021
244	0x3ebfc2df	0.37453362
245	0x3eaceb73	0.33773383
246	0x3f373a4b	0.71573323
247	0x3f1706c9	0.5899473
248	0x3e998eb6	0.29991692
249	0x3e4df706	0.20113763
250	0x3f0f6c72	0.5602485
251	0x3e86c00b	0.26318392
252	0x3ee03284	0.4378854
253	0x3e3d3bf0	0.18479896
254	0x3e94cbe7	0.29061815
255	0x3ea4c697	0.32182762

network.4.weight f4 [128, 256]
0	0xbd9b2eb6	-0.07577269
1	0x3dd54f10	0.104154706
2	0xbd82fb11	-0.06395543
3	0x3da82a0f	0.08211147
4	0xbdbd2e71	-0.092373736
5	0xbd8065a4	-0.062693864
6	0xbd229425	-0.039692063
7	0xbdc59c3c	-0.0964894
8	0x3cb6dc53	0.022321856
9	0x3d346546	0.044041894
10	0xbd773d7f	-0.06036138
11	0x3c30afd9	0.010784113
12	0x3d524ba5	0.05134167
13	0xbcc868de	-0.024464067
14	0x3c51d721	0.012807638
15	0x3d74f899	0.059807394
16	0x3db907b1	0.0903467
17	0xbc2fa2b8	-0.0107199475
18	0x3c95d4dc	0.018289976
19	0x3cbeceab	0.023291906
20	0xbdc0c4a4	-0.09412506
21	0xbdbbb62a	-0.091656044
22	0x3d5adc3e	0.053432696
23	0x3d01bad3	0.03167231
24	0x3d3c8cbf	0.046032663
25	0xbd037fd9	-0.032104347
26	0xbd9cea7a	-0.0766191
27	0x3d912f4f	0.070891015
28	0x3da8dc5a	0.08245154
29	0x3dacfe87	0.08446985
30	0xbdaaaa66	-0.08333282
31	0x3d78d4a2	0.060749657
32	0xbda3e3c0	-0.08002424
33	0x3d089d89	0.033353362
34	0x3dc33bed	0.09532914
35	0xbd9702e2	-0.07373597
36	0xbdf6bc41	-0.12047625
37	0x3df9f214	0.12204376
38	0xbc4c0161	-0.012451501
39	0xbdc9760c	-0.09836969
40	0xbd6f6565	-0.058446307
41	0x3d25e040	0.040497065
42	0xbdc70a56	-0.09718768
43	0x3d802e0c	0.06258783
44	0xbd36b1e9	-0.044603262
45	0xbdbc5bbc	-0.091971844
46	0xbd32cf5a	-0.043654777
47	0xbdf9120c	-0.12161645
48	0x3d8a1152	0.06741585
49	0x3ddbda04	0.107349426
50	0x3dc43633	0.0958065
51	0xbd0aec16	-0.033916555
52	0xbdd62a1a	-0.10457249
53	0x3dc2d412	0.095131055
54	0xbd8aee53	-0.06783738
55	0xbdec5820	-0.11540246
56	0x3ccd7606	0.025080692
57	0xbdf8ebfa	-0.12154384
58	0x3dc7bb47	0.09752517
59	0xbd976593	-0.073924206
60	0xbdb97d52	-0.09057106
61	0xbdc95c19	-0.09832019
62	0x3d2442e6	0.04010286
63	0xbda6b565	-0.08140067
64	0x3da4fc54	0.0805594
65	0xbbcecf94	-0.0063113663
66	0x3dac73d1	0.08420528
67	0x3d7e477b	0.062079888
68	0x3d71a727	0.0589973
69	0x3d682b0e	0.056681685
70	0x3c9577c9	0.018245595
71	0x3db853f3	0.09000387
72	0x3b43ac94	0.0029857503
73	0x3dbe49e9	0.09291441
74	0xbdbc8620	-0.0920527
75	0x3e0bf9c4	0.13669497
76	0xbd9e57e3	-0.07731607
77	0x3c6912bb	0.014225657
78	0x3cfe90ff	0.031074999
79	0x3a7971f8	0.0009515579
80	0xbd7cde4f	-0.061735447
81	0xbdc96c86	-0.09835152
82	0xbe04a0c6	-0.12951955
83	0x3c720a7d	0.014773008
84	0x3dff3677	0.1246156
85	0xbda41645	-0.0801206
86	0x3db019d9	0.0859868
87	0x3dbf0946	0.09327941
88	0x3de7cf62	0.11318852
89	0xbd9c8919	-0.07643337
90	0xbd1ebe22	-0.038755544
91	0x3ca92ca4	0.02065117
92	0xbdace829	-0.084427185
93	0x3d2fa61f	0.042883035
94	0x3d28abea	0.041179575
95	0x3db51e7a	0.088437036
96	0x3c7df613	0.015500563
97	0x3d0aba9e	0.03386938
98	0x3db9c5ab	0.09070905
99	0x3d88bf58	0.06677121
100	0xbe207333	-0.15668945
101	0xbd71a533	-0.058995437
102	0xbdc080f9	-0.093995996
103	0xbc8ee248	-0.017441884
104	0xb99db5b8	-0.00030080765
105	0x3d14403d	0.036194075
106	0xbd61dbb1	-0.055141155
107	0xbda08f2c	-0.07839808
108	0xbdba1dab	-0.0908769
109	0x3de4f59d	0.111796595
110	0x3d322b7b	0.043498497
111	0xbcc0a50e	-0.023516204
112	0x3d117ede	0.03552138
113	0xbd6f4777	-0.058417764
114	0xbb8337a4	-0.0040044356
115	0xbdf3c528	-0.11902839
116	0xbcac9b36	-0.021070104
117	0xbe032aac	-0.12809247
118	0xbcd2dba6	-0.025739502
119	0xbcf36891	-0.029712947
120	0x3dcdf22d	0.10055957
121	0x3cd3b1c3	0.0258416
122	0xbd0194ff	-0.031636234
123	0x3dd10672	0.102063075
124	0xbcf4f03b	-0.029899707
125	0xbc804b0b	-0.015660783
126	0xbd23e4b2	-0.040013023
127	0x3ce07d42	0.027403478
128	0xbc3ab76f	-0.011396273
129	0xbd211a34	-0.03933163
130	0xbc80d797	-0.015727801
131	0x3df2c36f	0.11853682
132	0x3d32f934	0.04369469
133	0xbd840624	-0.06446484
134	0x3beeb05c	0.0072842073
135	0x3c8309e7	0.015995933
136	0xbc2a0dfc	-0.010379311
137	0xbdbc215f	-0.091860525
138	0x3adfc03a	0.0017070838
139	0x3d0d9636	0.03456708
140	0xbdcefedc	-0.10107204
141	0x3c02143f	0.007939397
142	0xbdf2049a	-0.11817284
143	0xbac68b7c	-0.0015147771
144	0x3d3d1210	0.046159804
145	0xbddc1e85	-0.10748009
146	0x3dbabe52	0.09118332
147	0x3d880aa7	0.06642657
148	0x3ddcc718	0.107801616
149	0xbce02bbd	-0.027364606
150	0x3d28c7f5	0.04120632
151	0x3d6eff6a	0.05834905
152	0xbb36cea8	-0.0027894173
153	0x3d31862d	0.04334085
154	0xbdd1bd74	-0.102412134
155	0x3de27339	0.11057133
156	0xbc0b9398	-0.008519076
157	0x3e186e7a	0.14885893
158	0xbd1fd29f	-0.039019223
159	0x3d7c45cd	0.061590005
160	0xbdb1092b	-0.08644327
161	0x3d8d6056	0.0690314
162	0xbd9f33f9	-0.07773585
163	0x3d51d03c	0.05122398
164	0x3d80e335	0.06293336
165	0x3cddc76e	0.027072635
166	0x3d7a91dc	0.06117426
167	0xbde68c98	-0.11257285
168	0x3da5be9c	0.080929965
169	0xbced40d0	-0.02896157
170	0x3d39efbd	0.045394648
171	0x3d7d8c15	0.06190117
172	0xbd3c4846	-0.045967363
173	0xbda80e3c	-0.0820584
174	0xbd926c5a	-0.07149573
175	0xbd87ca34	-0.06630364
176	0x3d11d574	0.035603955
177	0xbde4d3cb	-0.11173209
178	0xbd919ef7	-0.07110398
179	0xbd9d3af5	-0.07677261
180	0xbb70104b	-0.0036630805
181	0x3c036d9e	0.00802174
182	0xbd809280	-0.06277943
183	0xbd8254f2	-0.06363858
184	0xbd985a48	-0.07439095
185	0x3e08b168	0.13348925
186	0xbd61d48d	-0.055134345
187	0x3d9c48b2	0.07631053
188	0x3d898a3b	0.067158185
189	0xbdc558fd	-0.09636114
190	0xbb08e333	-0.0020887374
191	0xbc8113f2	-0.015756581
192	0xbd4f69c2	-0.050637968
193	0xbcd411d5	-0.02588741
194	0xbd933e1e	-0.07189582
195	0x3d3f8f24	0.04676737
196	0x3cd31b18	0.025769755
197	0xbd8e1607	-0.06937795
198	0xbde7c73e	-0.11317299
199	0xbe167e3c	-0.14696592
200	0xbdac0a7b	-0.084004365
201	0xbb85a2c7	-0.0040782425
202	0xbbf33df2	-0.007423156
203	0x3d0996f0	0.03359121
204	0xbdfdcff9	-0.12393183
205	0xbcfb04cb	-0.030641934
206	0x3d076c16	0.033062063
207	0xbdbbcfcf	-0.09170496
208	0xbd0204e3	-0.03174294
209	0x3e0c6ae6	0.13712654
210	0x3de7a38a	0.113104895
211	0x3dc8d5b8	0.098063886
212	0xbd03353b	-0.032033186
213	0x3c8454f3	0.016153788
214	0xbb824ac5	-0.0039761984
215	0xbe0fdfc2	-0.140502
216	0x3bf628d9	0.0075121936
217	0x3b546f53	0.0032414987
218	0xbcbe8309	-0.023255842
219	0xbded4606	-0.115856215
220	0xbdbe611b	-0.09295865
221	0xbc55a584	-0.01303995
222	0x3b4d207f	0.0031299887
223	0xbe11e3b5	-0.1424702
224	0x3cebc6dc	0.028781347
225	0xbd8a4ca4	-0.06752899
226	0xbd18982d	-0.0372545
227	0x3d58eca4	0.052960053
228	0x3d2d4aed	0.042307783
229	0x3d217807	0.039421108
230	0x3bc527a4	0.0060166884
231	0xbb6bb277	-0.0035964528
232	0x3da7158b	0.08158406
233	0xbe05ef76	-0.13079628
234	0xbd229cf4	-0.039700463
235	0xbd0215bb	-0.031759005
236	0x3d5fb4e3	0.054615866
237	0x3d2df0db	0.042466026
238	0xbd3b3438	-0.045704097
239	0x3d837309	0.064184256
240	0x3c9cc163	0.019135183
241	0xbdaa306c	-0.08310017
242	0xbd897a05	-0.067127265
243	0xbdb8f5fb	-0.09031292
244	0xbdc74b2d	-0.097311355
245	0xbd36b22a	-0.044603504
246	0x3d67770d	0.05651002
247	0xbdb336a4	-0.08750656
248	0x3d6c4e91	0.057692114
249	0x3d18531f	0.037188645
250	0xbc4a1572	-0.0123342145
251	0xbc8fb76f	-0.017543523
252	0xbd9942f6	-0.07483475
253	0x3e00c101	0.12573625
254	0xbd2367f9	-0.039894078
255	0x3ccecee2	0.025245134
